…
      "WARNING:tensorflow:From C:\\Users\\User\\anaconda3\\Lib\\site-packages\\keras\\src\\backend.py:873: The name tf.get_default_graph is deprecated. Please use tf.compat.v1.get_default_graph instead.\n",
      "\n",
      "WARNING:tensorflow:From C:\\Users\\User\\anaconda3\\Lib\\site-packages\\keras\\src\\layers\\pooling\\max_pooling2d.py:161: The name tf.nn.max_pool is deprecated. Please use tf.nn.max_pool2d instead.\n",
      "\n",
      "Model: \"sequential\"\n",
      "_________________________________________________________________\n",
      " Layer (type)                Output Shape              Param #   \n",
      "=================================================================\n",
      " conv2d (Conv2D)             (None, 62, 62, 32)        896       \n",
      "                                                                 \n",
      " max_pooling2d (MaxPooling2  (None, 31, 31, 32)        0         \n",
      " D)                                                              \n",
      "                                                                 \n",
      " conv2d_1 (Conv2D)           (None, 29, 29, 64)        18496     \n",
      "                                                                 \n",
      " max_pooling2d_1 (MaxPoolin  (None, 14, 14, 64)        0         \n",
      " g2D)                                                            \n",
      "                                                                 \n",
      " conv2d_2 (Conv2D)           (None, 12, 12, 128)       73856     \n",
      "                                                                 \n",
      " max_pooling2d_2 (MaxPoolin  (None, 6, 6, 128)         0         \n",
      " g2D)                                                            \n",
      "                                                                 \n",
      " flatten (Flatten)           (None, 4608)              0         \n",
      "                                                                 \n",
      " dropout (Dropout)           (None, 4608)              0         \n",
      "                                                                 \n",
      " dense (Dense)               (None, 128)               589952    \n",
      "                                                                 \n",
      " dense_1 (Dense)             (None, 20)                2580      \n",
      "                                                                 \n",
      "=================================================================\n",
      "Total params: 685780 (2.62 MB)\n",
      "Trainable params: 685780 (2.62 MB)\n",
      "Non-trainable params: 0 (0.00 Byte)\n",
      "_________________________________________________________________\n"
     ]
    }
   ],
   "source": [
…
